<?xml version="1.0"?>
<net name="onnx_Frontend_IR" version="11">
	<layers>
		<layer id="0" name="input" type="Parameter" version="opset1">
			<data shape="?,45,44" element_type="f32" />
			<output>
				<port id="0" precision="FP32" names="input">
					<dim>-1</dim>
					<dim>45</dim>
					<dim>44</dim>
				</port>
			</output>
		</layer>
		<layer id="1" name="Constant_3190" type="Const" version="opset1">
			<data element_type="f32" shape="1, 1, 1" offset="0" size="4" />
			<output>
				<port id="0" precision="FP32">
					<dim>1</dim>
					<dim>1</dim>
					<dim>1</dim>
				</port>
			</output>
		</layer>
		<layer id="2" name="Constant_3191" type="Const" version="opset1">
			<data element_type="f32" shape="1, 1, 1" offset="4" size="4" />
			<output>
				<port id="0" precision="FP32">
					<dim>1</dim>
					<dim>1</dim>
					<dim>1</dim>
				</port>
			</output>
		</layer>
		<layer id="3" name="Constant_3192" type="Const" version="opset1">
			<data element_type="f32" shape="1, 1, 1" offset="0" size="4" />
			<output>
				<port id="0" precision="FP32">
					<dim>1</dim>
					<dim>1</dim>
					<dim>1</dim>
				</port>
			</output>
		</layer>
		<layer id="4" name="Constant_3193" type="Const" version="opset1">
			<data element_type="f32" shape="1, 1, 1" offset="4" size="4" />
			<output>
				<port id="0" precision="FP32">
					<dim>1</dim>
					<dim>1</dim>
					<dim>1</dim>
				</port>
			</output>
		</layer>
		<layer id="5" name="/x__0.0/FakeQuantize" type="FakeQuantize" version="opset1">
			<data levels="256" auto_broadcast="numpy" />
			<input>
				<port id="0" precision="FP32">
					<dim>-1</dim>
					<dim>45</dim>
					<dim>44</dim>
				</port>
				<port id="1" precision="FP32">
					<dim>1</dim>
					<dim>1</dim>
					<dim>1</dim>
				</port>
				<port id="2" precision="FP32">
					<dim>1</dim>
					<dim>1</dim>
					<dim>1</dim>
				</port>
				<port id="3" precision="FP32">
					<dim>1</dim>
					<dim>1</dim>
					<dim>1</dim>
				</port>
				<port id="4" precision="FP32">
					<dim>1</dim>
					<dim>1</dim>
					<dim>1</dim>
				</port>
			</input>
			<output>
				<port id="5" precision="FP32" names="/x__0.0/FakeQuantize_output_0">
					<dim>-1</dim>
					<dim>45</dim>
					<dim>44</dim>
				</port>
			</output>
		</layer>
		<layer id="6" name="/Constant_1" type="Const" version="opset1">
			<data element_type="i64" shape="1" offset="8" size="8" />
			<output>
				<port id="0" precision="I64" names="/Constant_1_output_0">
					<dim>1</dim>
				</port>
			</output>
		</layer>
		<layer id="7" name="/Constant_2" type="Const" version="opset1">
			<data element_type="i64" shape="1" offset="16" size="8" />
			<output>
				<port id="0" precision="I64" names="/Constant_2_output_0">
					<dim>1</dim>
				</port>
			</output>
		</layer>
		<layer id="8" name="/Constant_3" type="Const" version="opset1">
			<data element_type="i64" shape="1" offset="24" size="8" />
			<output>
				<port id="0" precision="I64" names="/Constant_3_output_0">
					<dim>1</dim>
				</port>
			</output>
		</layer>
		<layer id="9" name="/Constant" type="Const" version="opset1">
			<data element_type="i64" shape="1" offset="32" size="8" />
			<output>
				<port id="0" precision="I64" names="/Constant_output_0">
					<dim>1</dim>
				</port>
			</output>
		</layer>
		<layer id="10" name="/Slice" type="Slice" version="opset8">
			<input>
				<port id="0" precision="FP32">
					<dim>-1</dim>
					<dim>45</dim>
					<dim>44</dim>
				</port>
				<port id="1" precision="I64">
					<dim>1</dim>
				</port>
				<port id="2" precision="I64">
					<dim>1</dim>
				</port>
				<port id="3" precision="I64">
					<dim>1</dim>
				</port>
				<port id="4" precision="I64">
					<dim>1</dim>
				</port>
			</input>
			<output>
				<port id="5" precision="FP32" names="/Slice_output_0">
					<dim>-1</dim>
					<dim>45</dim>
					<dim>39</dim>
				</port>
			</output>
		</layer>
		<layer id="11" name="Constant_71" type="Const" version="opset1">
			<data element_type="i64" shape="3" offset="40" size="24" />
			<output>
				<port id="0" precision="I64">
					<dim>3</dim>
				</port>
			</output>
		</layer>
		<layer id="12" name="/world_processor/Transpose" type="Transpose" version="opset1">
			<input>
				<port id="0" precision="FP32">
					<dim>-1</dim>
					<dim>45</dim>
					<dim>39</dim>
				</port>
				<port id="1" precision="I64">
					<dim>3</dim>
				</port>
			</input>
			<output>
				<port id="2" precision="FP32" names="/world_processor/Transpose_output_0">
					<dim>-1</dim>
					<dim>39</dim>
					<dim>45</dim>
				</port>
			</output>
		</layer>
		<layer id="13" name="Constant_3567" type="Const" version="opset1">
			<data element_type="i8" shape="104, 3, 5" offset="64" size="1560" />
			<output>
				<port id="0" precision="I8">
					<dim>104</dim>
					<dim>3</dim>
					<dim>5</dim>
				</port>
			</output>
		</layer>
		<layer id="14" name="Convert_3568" type="Convert" version="opset1">
			<data destination_type="f32" />
			<input>
				<port id="0" precision="I8">
					<dim>104</dim>
					<dim>3</dim>
					<dim>5</dim>
				</port>
			</input>
			<output>
				<port id="1" precision="FP32">
					<dim>104</dim>
					<dim>3</dim>
					<dim>5</dim>
				</port>
			</output>
		</layer>
		<layer id="15" name="Constant_3569" type="Const" version="opset1">
			<data element_type="f32" shape="104, 1, 1" offset="1624" size="416" />
			<output>
				<port id="0" precision="FP32">
					<dim>104</dim>
					<dim>1</dim>
					<dim>1</dim>
				</port>
			</output>
		</layer>
		<layer id="16" name="/world_processor/groupConvBlock5/world_processor/groupConvBlock5/conv1d/0__1.0/FakeQuantize" type="Multiply" version="opset1">
			<data auto_broadcast="numpy" />
			<input>
				<port id="0" precision="FP32">
					<dim>104</dim>
					<dim>3</dim>
					<dim>5</dim>
				</port>
				<port id="1" precision="FP32">
					<dim>104</dim>
					<dim>1</dim>
					<dim>1</dim>
				</port>
			</input>
			<output>
				<port id="2" precision="FP32" names="/world_processor/groupConvBlock5/world_processor/groupConvBlock5/conv1d/0__1.0/FakeQuantize_output_0">
					<dim>104</dim>
					<dim>3</dim>
					<dim>5</dim>
				</port>
			</output>
		</layer>
		<layer id="17" name="Constant_3335" type="Const" version="opset1">
			<data element_type="i64" shape="4" offset="2040" size="32" />
			<output>
				<port id="0" precision="I64">
					<dim>4</dim>
				</port>
			</output>
		</layer>
		<layer id="18" name="Reshape_85" type="Reshape" version="opset1">
			<data special_zero="true" />
			<input>
				<port id="0" precision="FP32">
					<dim>104</dim>
					<dim>3</dim>
					<dim>5</dim>
				</port>
				<port id="1" precision="I64">
					<dim>4</dim>
				</port>
			</input>
			<output>
				<port id="2" precision="FP32">
					<dim>13</dim>
					<dim>8</dim>
					<dim>3</dim>
					<dim>5</dim>
				</port>
			</output>
		</layer>
		<layer id="19" name="/world_processor/groupConvBlock5/Conv/WithoutBiases" type="GroupConvolution" version="opset1">
			<data strides="2" pads_begin="0" pads_end="0" dilations="1" auto_pad="explicit" />
			<input>
				<port id="0" precision="FP32">
					<dim>-1</dim>
					<dim>39</dim>
					<dim>45</dim>
				</port>
				<port id="1" precision="FP32">
					<dim>13</dim>
					<dim>8</dim>
					<dim>3</dim>
					<dim>5</dim>
				</port>
			</input>
			<output>
				<port id="2" precision="FP32">
					<dim>-1</dim>
					<dim>104</dim>
					<dim>21</dim>
				</port>
			</output>
		</layer>
		<layer id="20" name="Reshape_135" type="Const" version="opset1">
			<data element_type="f32" shape="1, 104, 1" offset="2072" size="416" />
			<output>
				<port id="0" precision="FP32">
					<dim>1</dim>
					<dim>104</dim>
					<dim>1</dim>
				</port>
			</output>
		</layer>
		<layer id="21" name="/world_processor/groupConvBlock5/Conv" type="Add" version="opset1">
			<data auto_broadcast="numpy" />
			<input>
				<port id="0" precision="FP32">
					<dim>-1</dim>
					<dim>104</dim>
					<dim>21</dim>
				</port>
				<port id="1" precision="FP32">
					<dim>1</dim>
					<dim>104</dim>
					<dim>1</dim>
				</port>
			</input>
			<output>
				<port id="2" precision="FP32" names="/world_processor/groupConvBlock5/Conv_output_0">
					<dim>-1</dim>
					<dim>104</dim>
					<dim>21</dim>
				</port>
			</output>
		</layer>
		<layer id="22" name="Constant_3194" type="Const" version="opset1">
			<data element_type="f32" shape="1, 1, 1" offset="2488" size="4" />
			<output>
				<port id="0" precision="FP32">
					<dim>1</dim>
					<dim>1</dim>
					<dim>1</dim>
				</port>
			</output>
		</layer>
		<layer id="23" name="Constant_3195" type="Const" version="opset1">
			<data element_type="f32" shape="1, 1, 1" offset="2492" size="4" />
			<output>
				<port id="0" precision="FP32">
					<dim>1</dim>
					<dim>1</dim>
					<dim>1</dim>
				</port>
			</output>
		</layer>
		<layer id="24" name="Constant_3196" type="Const" version="opset1">
			<data element_type="f32" shape="1, 1, 1" offset="2488" size="4" />
			<output>
				<port id="0" precision="FP32">
					<dim>1</dim>
					<dim>1</dim>
					<dim>1</dim>
				</port>
			</output>
		</layer>
		<layer id="25" name="Constant_3197" type="Const" version="opset1">
			<data element_type="f32" shape="1, 1, 1" offset="2492" size="4" />
			<output>
				<port id="0" precision="FP32">
					<dim>1</dim>
					<dim>1</dim>
					<dim>1</dim>
				</port>
			</output>
		</layer>
		<layer id="26" name="/world_processor/relu/world_processor/relu/relu/1__0.0/FakeQuantize" type="FakeQuantize" version="opset1">
			<data levels="256" auto_broadcast="numpy" />
			<input>
				<port id="0" precision="FP32">
					<dim>-1</dim>
					<dim>104</dim>
					<dim>21</dim>
				</port>
				<port id="1" precision="FP32">
					<dim>1</dim>
					<dim>1</dim>
					<dim>1</dim>
				</port>
				<port id="2" precision="FP32">
					<dim>1</dim>
					<dim>1</dim>
					<dim>1</dim>
				</port>
				<port id="3" precision="FP32">
					<dim>1</dim>
					<dim>1</dim>
					<dim>1</dim>
				</port>
				<port id="4" precision="FP32">
					<dim>1</dim>
					<dim>1</dim>
					<dim>1</dim>
				</port>
			</input>
			<output>
				<port id="5" precision="FP32" names="/world_processor/relu/world_processor/relu/relu/1__0.0/FakeQuantize_output_0">
					<dim>-1</dim>
					<dim>104</dim>
					<dim>21</dim>
				</port>
			</output>
		</layer>
		<layer id="27" name="Constant_3571" type="Const" version="opset1">
			<data element_type="i8" shape="104, 3, 5" offset="2496" size="1560" />
			<output>
				<port id="0" precision="I8">
					<dim>104</dim>
					<dim>3</dim>
					<dim>5</dim>
				</port>
			</output>
		</layer>
		<layer id="28" name="Convert_3572" type="Convert" version="opset1">
			<data destination_type="f32" />
			<input>
				<port id="0" precision="I8">
					<dim>104</dim>
					<dim>3</dim>
					<dim>5</dim>
				</port>
			</input>
			<output>
				<port id="1" precision="FP32">
					<dim>104</dim>
					<dim>3</dim>
					<dim>5</dim>
				</port>
			</output>
		</layer>
		<layer id="29" name="Constant_3573" type="Const" version="opset1">
			<data element_type="f32" shape="104, 1, 1" offset="4056" size="416" />
			<output>
				<port id="0" precision="FP32">
					<dim>104</dim>
					<dim>1</dim>
					<dim>1</dim>
				</port>
			</output>
		</layer>
		<layer id="30" name="/world_processor/groupDil3ConvBlock5/world_processor/groupDil3ConvBlock5/conv1d/0__1.0/FakeQuantize" type="Multiply" version="opset1">
			<data auto_broadcast="numpy" />
			<input>
				<port id="0" precision="FP32">
					<dim>104</dim>
					<dim>3</dim>
					<dim>5</dim>
				</port>
				<port id="1" precision="FP32">
					<dim>104</dim>
					<dim>1</dim>
					<dim>1</dim>
				</port>
			</input>
			<output>
				<port id="2" precision="FP32" names="/world_processor/groupDil3ConvBlock5/world_processor/groupDil3ConvBlock5/conv1d/0__1.0/FakeQuantize_output_0">
					<dim>104</dim>
					<dim>3</dim>
					<dim>5</dim>
				</port>
			</output>
		</layer>
		<layer id="31" name="Constant_3336" type="Const" version="opset1">
			<data element_type="i64" shape="4" offset="2040" size="32" />
			<output>
				<port id="0" precision="I64">
					<dim>4</dim>
				</port>
			</output>
		</layer>
		<layer id="32" name="Reshape_145" type="Reshape" version="opset1">
			<data special_zero="true" />
			<input>
				<port id="0" precision="FP32">
					<dim>104</dim>
					<dim>3</dim>
					<dim>5</dim>
				</port>
				<port id="1" precision="I64">
					<dim>4</dim>
				</port>
			</input>
			<output>
				<port id="2" precision="FP32">
					<dim>13</dim>
					<dim>8</dim>
					<dim>3</dim>
					<dim>5</dim>
				</port>
			</output>
		</layer>
		<layer id="33" name="/world_processor/groupDil3ConvBlock5/Conv/WithoutBiases" type="GroupConvolution" version="opset1">
			<data strides="2" pads_begin="4" pads_end="4" dilations="3" auto_pad="explicit" />
			<input>
				<port id="0" precision="FP32">
					<dim>-1</dim>
					<dim>39</dim>
					<dim>45</dim>
				</port>
				<port id="1" precision="FP32">
					<dim>13</dim>
					<dim>8</dim>
					<dim>3</dim>
					<dim>5</dim>
				</port>
			</input>
			<output>
				<port id="2" precision="FP32">
					<dim>-1</dim>
					<dim>104</dim>
					<dim>21</dim>
				</port>
			</output>
		</layer>
		<layer id="34" name="Reshape_195" type="Const" version="opset1">
			<data element_type="f32" shape="1, 104, 1" offset="4472" size="416" />
			<output>
				<port id="0" precision="FP32">
					<dim>1</dim>
					<dim>104</dim>
					<dim>1</dim>
				</port>
			</output>
		</layer>
		<layer id="35" name="/world_processor/groupDil3ConvBlock5/Conv" type="Add" version="opset1">
			<data auto_broadcast="numpy" />
			<input>
				<port id="0" precision="FP32">
					<dim>-1</dim>
					<dim>104</dim>
					<dim>21</dim>
				</port>
				<port id="1" precision="FP32">
					<dim>1</dim>
					<dim>104</dim>
					<dim>1</dim>
				</port>
			</input>
			<output>
				<port id="2" precision="FP32" names="/world_processor/groupDil3ConvBlock5/Conv_output_0">
					<dim>-1</dim>
					<dim>104</dim>
					<dim>21</dim>
				</port>
			</output>
		</layer>
		<layer id="36" name="Constant_3198" type="Const" version="opset1">
			<data element_type="f32" shape="1, 1, 1" offset="2488" size="4" />
			<output>
				<port id="0" precision="FP32">
					<dim>1</dim>
					<dim>1</dim>
					<dim>1</dim>
				</port>
			</output>
		</layer>
		<layer id="37" name="Constant_3199" type="Const" version="opset1">
			<data element_type="f32" shape="1, 1, 1" offset="2492" size="4" />
			<output>
				<port id="0" precision="FP32">
					<dim>1</dim>
					<dim>1</dim>
					<dim>1</dim>
				</port>
			</output>
		</layer>
		<layer id="38" name="Constant_3200" type="Const" version="opset1">
			<data element_type="f32" shape="1, 1, 1" offset="2488" size="4" />
			<output>
				<port id="0" precision="FP32">
					<dim>1</dim>
					<dim>1</dim>
					<dim>1</dim>
				</port>
			</output>
		</layer>
		<layer id="39" name="Constant_3201" type="Const" version="opset1">
			<data element_type="f32" shape="1, 1, 1" offset="2492" size="4" />
			<output>
				<port id="0" precision="FP32">
					<dim>1</dim>
					<dim>1</dim>
					<dim>1</dim>
				</port>
			</output>
		</layer>
		<layer id="40" name="/world_processor/relu/world_processor/relu/relu/1__0.0_1/FakeQuantize" type="FakeQuantize" version="opset1">
			<data levels="256" auto_broadcast="numpy" />
			<input>
				<port id="0" precision="FP32">
					<dim>-1</dim>
					<dim>104</dim>
					<dim>21</dim>
				</port>
				<port id="1" precision="FP32">
					<dim>1</dim>
					<dim>1</dim>
					<dim>1</dim>
				</port>
				<port id="2" precision="FP32">
					<dim>1</dim>
					<dim>1</dim>
					<dim>1</dim>
				</port>
				<port id="3" precision="FP32">
					<dim>1</dim>
					<dim>1</dim>
					<dim>1</dim>
				</port>
				<port id="4" precision="FP32">
					<dim>1</dim>
					<dim>1</dim>
					<dim>1</dim>
				</port>
			</input>
			<output>
				<port id="5" precision="FP32" names="/world_processor/relu/world_processor/relu/relu/1__0.0_1/FakeQuantize_output_0">
					<dim>-1</dim>
					<dim>104</dim>
					<dim>21</dim>
				</port>
			</output>
		</layer>
		<layer id="41" name="/world_processor/Concat" type="Concat" version="opset1">
			<data axis="1" />
			<input>
				<port id="0" precision="FP32">
					<dim>-1</dim>
					<dim>104</dim>
					<dim>21</dim>
				</port>
				<port id="1" precision="FP32">
					<dim>-1</dim>
					<dim>104</dim>
					<dim>21</dim>
				</port>
			</input>
			<output>
				<port id="2" precision="FP32" names="/world_processor/Concat_output_0">
					<dim>-1</dim>
					<dim>208</dim>
					<dim>21</dim>
				</port>
			</output>
		</layer>
		<layer id="42" name="Constant_3575" type="Const" version="opset1">
			<data element_type="i8" shape="64, 208, 3" offset="4888" size="39936" />
			<output>
				<port id="0" precision="I8">
					<dim>64</dim>
					<dim>208</dim>
					<dim>3</dim>
				</port>
			</output>
		</layer>
		<layer id="43" name="Convert_3576" type="Convert" version="opset1">
			<data destination_type="f32" />
			<input>
				<port id="0" precision="I8">
					<dim>64</dim>
					<dim>208</dim>
					<dim>3</dim>
				</port>
			</input>
			<output>
				<port id="1" precision="FP32">
					<dim>64</dim>
					<dim>208</dim>
					<dim>3</dim>
				</port>
			</output>
		</layer>
		<layer id="44" name="Constant_3577" type="Const" version="opset1">
			<data element_type="f32" shape="64, 1, 1" offset="44824" size="256" />
			<output>
				<port id="0" precision="FP32">
					<dim>64</dim>
					<dim>1</dim>
					<dim>1</dim>
				</port>
			</output>
		</layer>
		<layer id="45" name="/world_processor/convBlock3_1/world_processor/convBlock3_1/conv1d/0__1.0/FakeQuantize" type="Multiply" version="opset1">
			<data auto_broadcast="numpy" />
			<input>
				<port id="0" precision="FP32">
					<dim>64</dim>
					<dim>208</dim>
					<dim>3</dim>
				</port>
				<port id="1" precision="FP32">
					<dim>64</dim>
					<dim>1</dim>
					<dim>1</dim>
				</port>
			</input>
			<output>
				<port id="2" precision="FP32" names="/world_processor/convBlock3_1/world_processor/convBlock3_1/conv1d/0__1.0/FakeQuantize_output_0">
					<dim>64</dim>
					<dim>208</dim>
					<dim>3</dim>
				</port>
			</output>
		</layer>
		<layer id="46" name="/world_processor/convBlock3_1/Conv/WithoutBiases" type="Convolution" version="opset1">
			<data strides="2" dilations="1" pads_begin="0" pads_end="0" auto_pad="explicit" />
			<input>
				<port id="0" precision="FP32">
					<dim>-1</dim>
					<dim>208</dim>
					<dim>21</dim>
				</port>
				<port id="1" precision="FP32">
					<dim>64</dim>
					<dim>208</dim>
					<dim>3</dim>
				</port>
			</input>
			<output>
				<port id="2" precision="FP32">
					<dim>-1</dim>
					<dim>64</dim>
					<dim>10</dim>
				</port>
			</output>
		</layer>
		<layer id="47" name="Reshape_249" type="Const" version="opset1">
			<data element_type="f32" shape="1, 64, 1" offset="45080" size="256" />
			<output>
				<port id="0" precision="FP32">
					<dim>1</dim>
					<dim>64</dim>
					<dim>1</dim>
				</port>
			</output>
		</layer>
		<layer id="48" name="/world_processor/convBlock3_1/Conv" type="Add" version="opset1">
			<data auto_broadcast="numpy" />
			<input>
				<port id="0" precision="FP32">
					<dim>-1</dim>
					<dim>64</dim>
					<dim>10</dim>
				</port>
				<port id="1" precision="FP32">
					<dim>1</dim>
					<dim>64</dim>
					<dim>1</dim>
				</port>
			</input>
			<output>
				<port id="2" precision="FP32" names="/world_processor/convBlock3_1/Conv_output_0">
					<dim>-1</dim>
					<dim>64</dim>
					<dim>10</dim>
				</port>
			</output>
		</layer>
		<layer id="49" name="Constant_3202" type="Const" version="opset1">
			<data element_type="f32" shape="1, 1, 1" offset="2488" size="4" />
			<output>
				<port id="0" precision="FP32">
					<dim>1</dim>
					<dim>1</dim>
					<dim>1</dim>
				</port>
			</output>
		</layer>
		<layer id="50" name="Constant_3203" type="Const" version="opset1">
			<data element_type="f32" shape="1, 1, 1" offset="45336" size="4" />
			<output>
				<port id="0" precision="FP32">
					<dim>1</dim>
					<dim>1</dim>
					<dim>1</dim>
				</port>
			</output>
		</layer>
		<layer id="51" name="Constant_3204" type="Const" version="opset1">
			<data element_type="f32" shape="1, 1, 1" offset="2488" size="4" />
			<output>
				<port id="0" precision="FP32">
					<dim>1</dim>
					<dim>1</dim>
					<dim>1</dim>
				</port>
			</output>
		</layer>
		<layer id="52" name="Constant_3205" type="Const" version="opset1">
			<data element_type="f32" shape="1, 1, 1" offset="45336" size="4" />
			<output>
				<port id="0" precision="FP32">
					<dim>1</dim>
					<dim>1</dim>
					<dim>1</dim>
				</port>
			</output>
		</layer>
		<layer id="53" name="/world_processor/relu/world_processor/relu/relu/2__0.0/FakeQuantize" type="FakeQuantize" version="opset1">
			<data levels="256" auto_broadcast="numpy" />
			<input>
				<port id="0" precision="FP32">
					<dim>-1</dim>
					<dim>64</dim>
					<dim>10</dim>
				</port>
				<port id="1" precision="FP32">
					<dim>1</dim>
					<dim>1</dim>
					<dim>1</dim>
				</port>
				<port id="2" precision="FP32">
					<dim>1</dim>
					<dim>1</dim>
					<dim>1</dim>
				</port>
				<port id="3" precision="FP32">
					<dim>1</dim>
					<dim>1</dim>
					<dim>1</dim>
				</port>
				<port id="4" precision="FP32">
					<dim>1</dim>
					<dim>1</dim>
					<dim>1</dim>
				</port>
			</input>
			<output>
				<port id="5" precision="FP32" names="/world_processor/relu/world_processor/relu/relu/2__0.0/FakeQuantize_output_0">
					<dim>-1</dim>
					<dim>64</dim>
					<dim>10</dim>
				</port>
			</output>
		</layer>
		<layer id="54" name="Range_274" type="Const" version="opset1">
			<data element_type="i64" shape="1" offset="32" size="8" />
			<output>
				<port id="0" precision="I64">
					<dim>1</dim>
				</port>
			</output>
		</layer>
		<layer id="55" name="/world_processor/GAP/GlobalAveragePool" type="ReduceMean" version="opset1">
			<data keep_dims="true" />
			<input>
				<port id="0" precision="FP32">
					<dim>-1</dim>
					<dim>64</dim>
					<dim>10</dim>
				</port>
				<port id="1" precision="I64">
					<dim>1</dim>
				</port>
			</input>
			<output>
				<port id="2" precision="FP32" names="/world_processor/GAP/GlobalAveragePool_output_0">
					<dim>-1</dim>
					<dim>64</dim>
					<dim>1</dim>
				</port>
			</output>
		</layer>
		<layer id="56" name="Constant_3206" type="Const" version="opset1">
			<data element_type="f32" shape="1, 1, 1" offset="2488" size="4" />
			<output>
				<port id="0" precision="FP32">
					<dim>1</dim>
					<dim>1</dim>
					<dim>1</dim>
				</port>
			</output>
		</layer>
		<layer id="57" name="Constant_3207" type="Const" version="opset1">
			<data element_type="f32" shape="1, 1, 1" offset="45340" size="4" />
			<output>
				<port id="0" precision="FP32">
					<dim>1</dim>
					<dim>1</dim>
					<dim>1</dim>
				</port>
			</output>
		</layer>
		<layer id="58" name="Constant_3208" type="Const" version="opset1">
			<data element_type="f32" shape="1, 1, 1" offset="2488" size="4" />
			<output>
				<port id="0" precision="FP32">
					<dim>1</dim>
					<dim>1</dim>
					<dim>1</dim>
				</port>
			</output>
		</layer>
		<layer id="59" name="Constant_3209" type="Const" version="opset1">
			<data element_type="f32" shape="1, 1, 1" offset="45340" size="4" />
			<output>
				<port id="0" precision="FP32">
					<dim>1</dim>
					<dim>1</dim>
					<dim>1</dim>
				</port>
			</output>
		</layer>
		<layer id="60" name="/world_processor/GAP/world_processor/GAP/adaptive_avg_pool1d/0__0.0/FakeQuantize" type="FakeQuantize" version="opset1">
			<data levels="256" auto_broadcast="numpy" />
			<input>
				<port id="0" precision="FP32">
					<dim>-1</dim>
					<dim>64</dim>
					<dim>1</dim>
				</port>
				<port id="1" precision="FP32">
					<dim>1</dim>
					<dim>1</dim>
					<dim>1</dim>
				</port>
				<port id="2" precision="FP32">
					<dim>1</dim>
					<dim>1</dim>
					<dim>1</dim>
				</port>
				<port id="3" precision="FP32">
					<dim>1</dim>
					<dim>1</dim>
					<dim>1</dim>
				</port>
				<port id="4" precision="FP32">
					<dim>1</dim>
					<dim>1</dim>
					<dim>1</dim>
				</port>
			</input>
			<output>
				<port id="5" precision="FP32" names="/world_processor/GAP/world_processor/GAP/adaptive_avg_pool1d/0__0.0/FakeQuantize_output_0">
					<dim>-1</dim>
					<dim>64</dim>
					<dim>1</dim>
				</port>
			</output>
		</layer>
		<layer id="61" name="/world_processor/Constant" type="Const" version="opset1">
			<data element_type="i64" shape="1" offset="32" size="8" />
			<output>
				<port id="0" precision="I64" names="/world_processor/Constant_output_0">
					<dim>1</dim>
				</port>
			</output>
		</layer>
		<layer id="62" name="/world_processor/Squeeze" type="Squeeze" version="opset1">
			<input>
				<port id="0" precision="FP32">
					<dim>-1</dim>
					<dim>64</dim>
					<dim>1</dim>
				</port>
				<port id="1" precision="I64">
					<dim>1</dim>
				</port>
			</input>
			<output>
				<port id="2" precision="FP32" names="/world_processor/Squeeze_output_0">
					<dim>-1</dim>
					<dim>64</dim>
				</port>
			</output>
		</layer>
		<layer id="63" name="/Constant_9" type="Const" version="opset1">
			<data element_type="i64" shape="1" offset="45344" size="8" />
			<output>
				<port id="0" precision="I64" names="/Constant_9_output_0">
					<dim>1</dim>
				</port>
			</output>
		</layer>
		<layer id="64" name="/Constant_10" type="Const" version="opset1">
			<data element_type="i64" shape="1" offset="45352" size="8" />
			<output>
				<port id="0" precision="I64" names="/Constant_10_output_0">
					<dim>1</dim>
				</port>
			</output>
		</layer>
		<layer id="65" name="/Constant_11" type="Const" version="opset1">
			<data element_type="i64" shape="1" offset="24" size="8" />
			<output>
				<port id="0" precision="I64" names="/Constant_11_output_0">
					<dim>1</dim>
				</port>
			</output>
		</layer>
		<layer id="66" name="/Constant_8" type="Const" version="opset1">
			<data element_type="i64" shape="1" offset="32" size="8" />
			<output>
				<port id="0" precision="I64" names="/Constant_8_output_0">
					<dim>1</dim>
				</port>
			</output>
		</layer>
		<layer id="67" name="/Slice_2" type="Slice" version="opset8">
			<input>
				<port id="0" precision="FP32">
					<dim>-1</dim>
					<dim>45</dim>
					<dim>44</dim>
				</port>
				<port id="1" precision="I64">
					<dim>1</dim>
				</port>
				<port id="2" precision="I64">
					<dim>1</dim>
				</port>
				<port id="3" precision="I64">
					<dim>1</dim>
				</port>
				<port id="4" precision="I64">
					<dim>1</dim>
				</port>
			</input>
			<output>
				<port id="5" precision="FP32" names="/Slice_2_output_0">
					<dim>-1</dim>
					<dim>45</dim>
					<dim>1</dim>
				</port>
			</output>
		</layer>
		<layer id="68" name="Constant_75" type="Const" version="opset1">
			<data element_type="i64" shape="3" offset="40" size="24" />
			<output>
				<port id="0" precision="I64">
					<dim>3</dim>
				</port>
			</output>
		</layer>
		<layer id="69" name="/vis_processor/Transpose" type="Transpose" version="opset1">
			<input>
				<port id="0" precision="FP32">
					<dim>-1</dim>
					<dim>45</dim>
					<dim>1</dim>
				</port>
				<port id="1" precision="I64">
					<dim>3</dim>
				</port>
			</input>
			<output>
				<port id="2" precision="FP32" names="/vis_processor/Transpose_output_0">
					<dim>-1</dim>
					<dim>1</dim>
					<dim>45</dim>
				</port>
			</output>
		</layer>
		<layer id="70" name="Constant_3579" type="Const" version="opset1">
			<data element_type="i8" shape="16, 1, 5" offset="45360" size="80" />
			<output>
				<port id="0" precision="I8">
					<dim>16</dim>
					<dim>1</dim>
					<dim>5</dim>
				</port>
			</output>
		</layer>
		<layer id="71" name="Convert_3580" type="Convert" version="opset1">
			<data destination_type="f32" />
			<input>
				<port id="0" precision="I8">
					<dim>16</dim>
					<dim>1</dim>
					<dim>5</dim>
				</port>
			</input>
			<output>
				<port id="1" precision="FP32">
					<dim>16</dim>
					<dim>1</dim>
					<dim>5</dim>
				</port>
			</output>
		</layer>
		<layer id="72" name="Constant_3581" type="Const" version="opset1">
			<data element_type="f32" shape="16, 1, 1" offset="45440" size="64" />
			<output>
				<port id="0" precision="FP32">
					<dim>16</dim>
					<dim>1</dim>
					<dim>1</dim>
				</port>
			</output>
		</layer>
		<layer id="73" name="/vis_processor/conv1/vis_processor/conv1/conv1d/0__1.0/FakeQuantize" type="Multiply" version="opset1">
			<data auto_broadcast="numpy" />
			<input>
				<port id="0" precision="FP32">
					<dim>16</dim>
					<dim>1</dim>
					<dim>5</dim>
				</port>
				<port id="1" precision="FP32">
					<dim>16</dim>
					<dim>1</dim>
					<dim>1</dim>
				</port>
			</input>
			<output>
				<port id="2" precision="FP32" names="/vis_processor/conv1/vis_processor/conv1/conv1d/0__1.0/FakeQuantize_output_0">
					<dim>16</dim>
					<dim>1</dim>
					<dim>5</dim>
				</port>
			</output>
		</layer>
		<layer id="74" name="/vis_processor/conv1/Conv/WithoutBiases" type="Convolution" version="opset1">
			<data strides="2" dilations="1" pads_begin="0" pads_end="0" auto_pad="explicit" />
			<input>
				<port id="0" precision="FP32">
					<dim>-1</dim>
					<dim>1</dim>
					<dim>45</dim>
				</port>
				<port id="1" precision="FP32">
					<dim>16</dim>
					<dim>1</dim>
					<dim>5</dim>
				</port>
			</input>
			<output>
				<port id="2" precision="FP32">
					<dim>-1</dim>
					<dim>16</dim>
					<dim>21</dim>
				</port>
			</output>
		</layer>
		<layer id="75" name="Reshape_211" type="Const" version="opset1">
			<data element_type="f32" shape="1, 16, 1" offset="45504" size="64" />
			<output>
				<port id="0" precision="FP32">
					<dim>1</dim>
					<dim>16</dim>
					<dim>1</dim>
				</port>
			</output>
		</layer>
		<layer id="76" name="/vis_processor/conv1/Conv" type="Add" version="opset1">
			<data auto_broadcast="numpy" />
			<input>
				<port id="0" precision="FP32">
					<dim>-1</dim>
					<dim>16</dim>
					<dim>21</dim>
				</port>
				<port id="1" precision="FP32">
					<dim>1</dim>
					<dim>16</dim>
					<dim>1</dim>
				</port>
			</input>
			<output>
				<port id="2" precision="FP32" names="/vis_processor/conv1/Conv_output_0">
					<dim>-1</dim>
					<dim>16</dim>
					<dim>21</dim>
				</port>
			</output>
		</layer>
		<layer id="77" name="Constant_3210" type="Const" version="opset1">
			<data element_type="f32" shape="1, 1, 1" offset="2488" size="4" />
			<output>
				<port id="0" precision="FP32">
					<dim>1</dim>
					<dim>1</dim>
					<dim>1</dim>
				</port>
			</output>
		</layer>
		<layer id="78" name="Constant_3211" type="Const" version="opset1">
			<data element_type="f32" shape="1, 1, 1" offset="45568" size="4" />
			<output>
				<port id="0" precision="FP32">
					<dim>1</dim>
					<dim>1</dim>
					<dim>1</dim>
				</port>
			</output>
		</layer>
		<layer id="79" name="Constant_3212" type="Const" version="opset1">
			<data element_type="f32" shape="1, 1, 1" offset="2488" size="4" />
			<output>
				<port id="0" precision="FP32">
					<dim>1</dim>
					<dim>1</dim>
					<dim>1</dim>
				</port>
			</output>
		</layer>
		<layer id="80" name="Constant_3213" type="Const" version="opset1">
			<data element_type="f32" shape="1, 1, 1" offset="45568" size="4" />
			<output>
				<port id="0" precision="FP32">
					<dim>1</dim>
					<dim>1</dim>
					<dim>1</dim>
				</port>
			</output>
		</layer>
		<layer id="81" name="/vis_processor/relu/vis_processor/relu/relu/0__0.0/FakeQuantize" type="FakeQuantize" version="opset1">
			<data levels="256" auto_broadcast="numpy" />
			<input>
				<port id="0" precision="FP32">
					<dim>-1</dim>
					<dim>16</dim>
					<dim>21</dim>
				</port>
				<port id="1" precision="FP32">
					<dim>1</dim>
					<dim>1</dim>
					<dim>1</dim>
				</port>
				<port id="2" precision="FP32">
					<dim>1</dim>
					<dim>1</dim>
					<dim>1</dim>
				</port>
				<port id="3" precision="FP32">
					<dim>1</dim>
					<dim>1</dim>
					<dim>1</dim>
				</port>
				<port id="4" precision="FP32">
					<dim>1</dim>
					<dim>1</dim>
					<dim>1</dim>
				</port>
			</input>
			<output>
				<port id="5" precision="FP32" names="/vis_processor/relu/vis_processor/relu/relu/0__0.0/FakeQuantize_output_0">
					<dim>-1</dim>
					<dim>16</dim>
					<dim>21</dim>
				</port>
			</output>
		</layer>
		<layer id="82" name="Constant_3583" type="Const" version="opset1">
			<data element_type="i8" shape="64, 16, 5" offset="45572" size="5120" />
			<output>
				<port id="0" precision="I8">
					<dim>64</dim>
					<dim>16</dim>
					<dim>5</dim>
				</port>
			</output>
		</layer>
		<layer id="83" name="Convert_3584" type="Convert" version="opset1">
			<data destination_type="f32" />
			<input>
				<port id="0" precision="I8">
					<dim>64</dim>
					<dim>16</dim>
					<dim>5</dim>
				</port>
			</input>
			<output>
				<port id="1" precision="FP32">
					<dim>64</dim>
					<dim>16</dim>
					<dim>5</dim>
				</port>
			</output>
		</layer>
		<layer id="84" name="Constant_3585" type="Const" version="opset1">
			<data element_type="f32" shape="64, 1, 1" offset="50692" size="256" />
			<output>
				<port id="0" precision="FP32">
					<dim>64</dim>
					<dim>1</dim>
					<dim>1</dim>
				</port>
			</output>
		</layer>
		<layer id="85" name="/vis_processor/conv2/vis_processor/conv2/conv1d/0__1.0/FakeQuantize" type="Multiply" version="opset1">
			<data auto_broadcast="numpy" />
			<input>
				<port id="0" precision="FP32">
					<dim>64</dim>
					<dim>16</dim>
					<dim>5</dim>
				</port>
				<port id="1" precision="FP32">
					<dim>64</dim>
					<dim>1</dim>
					<dim>1</dim>
				</port>
			</input>
			<output>
				<port id="2" precision="FP32" names="/vis_processor/conv2/vis_processor/conv2/conv1d/0__1.0/FakeQuantize_output_0">
					<dim>64</dim>
					<dim>16</dim>
					<dim>5</dim>
				</port>
			</output>
		</layer>
		<layer id="86" name="/vis_processor/conv2/Conv/WithoutBiases" type="Convolution" version="opset1">
			<data strides="2" dilations="1" pads_begin="0" pads_end="0" auto_pad="explicit" />
			<input>
				<port id="0" precision="FP32">
					<dim>-1</dim>
					<dim>16</dim>
					<dim>21</dim>
				</port>
				<port id="1" precision="FP32">
					<dim>64</dim>
					<dim>16</dim>
					<dim>5</dim>
				</port>
			</input>
			<output>
				<port id="2" precision="FP32">
					<dim>-1</dim>
					<dim>64</dim>
					<dim>9</dim>
				</port>
			</output>
		</layer>
		<layer id="87" name="Reshape_235" type="Const" version="opset1">
			<data element_type="f32" shape="1, 64, 1" offset="50948" size="256" />
			<output>
				<port id="0" precision="FP32">
					<dim>1</dim>
					<dim>64</dim>
					<dim>1</dim>
				</port>
			</output>
		</layer>
		<layer id="88" name="/vis_processor/conv2/Conv" type="Add" version="opset1">
			<data auto_broadcast="numpy" />
			<input>
				<port id="0" precision="FP32">
					<dim>-1</dim>
					<dim>64</dim>
					<dim>9</dim>
				</port>
				<port id="1" precision="FP32">
					<dim>1</dim>
					<dim>64</dim>
					<dim>1</dim>
				</port>
			</input>
			<output>
				<port id="2" precision="FP32" names="/vis_processor/conv2/Conv_output_0">
					<dim>-1</dim>
					<dim>64</dim>
					<dim>9</dim>
				</port>
			</output>
		</layer>
		<layer id="89" name="Constant_3214" type="Const" version="opset1">
			<data element_type="f32" shape="1, 1, 1" offset="2488" size="4" />
			<output>
				<port id="0" precision="FP32">
					<dim>1</dim>
					<dim>1</dim>
					<dim>1</dim>
				</port>
			</output>
		</layer>
		<layer id="90" name="Constant_3215" type="Const" version="opset1">
			<data element_type="f32" shape="1, 1, 1" offset="51204" size="4" />
			<output>
				<port id="0" precision="FP32">
					<dim>1</dim>
					<dim>1</dim>
					<dim>1</dim>
				</port>
			</output>
		</layer>
		<layer id="91" name="Constant_3216" type="Const" version="opset1">
			<data element_type="f32" shape="1, 1, 1" offset="2488" size="4" />
			<output>
				<port id="0" precision="FP32">
					<dim>1</dim>
					<dim>1</dim>
					<dim>1</dim>
				</port>
			</output>
		</layer>
		<layer id="92" name="Constant_3217" type="Const" version="opset1">
			<data element_type="f32" shape="1, 1, 1" offset="51204" size="4" />
			<output>
				<port id="0" precision="FP32">
					<dim>1</dim>
					<dim>1</dim>
					<dim>1</dim>
				</port>
			</output>
		</layer>
		<layer id="93" name="/vis_processor/relu/vis_processor/relu/relu/1__0.0/FakeQuantize" type="FakeQuantize" version="opset1">
			<data levels="256" auto_broadcast="numpy" />
			<input>
				<port id="0" precision="FP32">
					<dim>-1</dim>
					<dim>64</dim>
					<dim>9</dim>
				</port>
				<port id="1" precision="FP32">
					<dim>1</dim>
					<dim>1</dim>
					<dim>1</dim>
				</port>
				<port id="2" precision="FP32">
					<dim>1</dim>
					<dim>1</dim>
					<dim>1</dim>
				</port>
				<port id="3" precision="FP32">
					<dim>1</dim>
					<dim>1</dim>
					<dim>1</dim>
				</port>
				<port id="4" precision="FP32">
					<dim>1</dim>
					<dim>1</dim>
					<dim>1</dim>
				</port>
			</input>
			<output>
				<port id="5" precision="FP32" names="/vis_processor/relu/vis_processor/relu/relu/1__0.0/FakeQuantize_output_0">
					<dim>-1</dim>
					<dim>64</dim>
					<dim>9</dim>
				</port>
			</output>
		</layer>
		<layer id="94" name="Range_264" type="Const" version="opset1">
			<data element_type="i64" shape="1" offset="32" size="8" />
			<output>
				<port id="0" precision="I64">
					<dim>1</dim>
				</port>
			</output>
		</layer>
		<layer id="95" name="/vis_processor/gap/GlobalAveragePool" type="ReduceMean" version="opset1">
			<data keep_dims="true" />
			<input>
				<port id="0" precision="FP32">
					<dim>-1</dim>
					<dim>64</dim>
					<dim>9</dim>
				</port>
				<port id="1" precision="I64">
					<dim>1</dim>
				</port>
			</input>
			<output>
				<port id="2" precision="FP32" names="/vis_processor/gap/GlobalAveragePool_output_0">
					<dim>-1</dim>
					<dim>64</dim>
					<dim>1</dim>
				</port>
			</output>
		</layer>
		<layer id="96" name="/vis_processor/Constant" type="Const" version="opset1">
			<data element_type="i64" shape="1" offset="32" size="8" />
			<output>
				<port id="0" precision="I64" names="/vis_processor/Constant_output_0">
					<dim>1</dim>
				</port>
			</output>
		</layer>
		<layer id="97" name="/vis_processor/Squeeze" type="Squeeze" version="opset1">
			<input>
				<port id="0" precision="FP32">
					<dim>-1</dim>
					<dim>64</dim>
					<dim>1</dim>
				</port>
				<port id="1" precision="I64">
					<dim>1</dim>
				</port>
			</input>
			<output>
				<port id="2" precision="FP32" names="/vis_processor/Squeeze_output_0">
					<dim>-1</dim>
					<dim>64</dim>
				</port>
			</output>
		</layer>
		<layer id="98" name="/vis_processor/Sigmoid" type="Sigmoid" version="opset1">
			<input>
				<port id="0" precision="FP32">
					<dim>-1</dim>
					<dim>64</dim>
				</port>
			</input>
			<output>
				<port id="1" precision="FP32" names="/vis_processor/Sigmoid_output_0">
					<dim>-1</dim>
					<dim>64</dim>
				</port>
			</output>
		</layer>
		<layer id="99" name="Constant_3218" type="Const" version="opset1">
			<data element_type="f32" shape="1, 1" offset="2488" size="4" />
			<output>
				<port id="0" precision="FP32">
					<dim>1</dim>
					<dim>1</dim>
				</port>
			</output>
		</layer>
		<layer id="100" name="Constant_3219" type="Const" version="opset1">
			<data element_type="f32" shape="1, 1" offset="51208" size="4" />
			<output>
				<port id="0" precision="FP32">
					<dim>1</dim>
					<dim>1</dim>
				</port>
			</output>
		</layer>
		<layer id="101" name="Constant_3220" type="Const" version="opset1">
			<data element_type="f32" shape="1, 1" offset="2488" size="4" />
			<output>
				<port id="0" precision="FP32">
					<dim>1</dim>
					<dim>1</dim>
				</port>
			</output>
		</layer>
		<layer id="102" name="Constant_3221" type="Const" version="opset1">
			<data element_type="f32" shape="1, 1" offset="51208" size="4" />
			<output>
				<port id="0" precision="FP32">
					<dim>1</dim>
					<dim>1</dim>
				</port>
			</output>
		</layer>
		<layer id="103" name="/vis_processor/vis_processor/sigmoid/0__0.0/FakeQuantize" type="FakeQuantize" version="opset1">
			<data levels="256" auto_broadcast="numpy" />
			<input>
				<port id="0" precision="FP32">
					<dim>-1</dim>
					<dim>64</dim>
				</port>
				<port id="1" precision="FP32">
					<dim>1</dim>
					<dim>1</dim>
				</port>
				<port id="2" precision="FP32">
					<dim>1</dim>
					<dim>1</dim>
				</port>
				<port id="3" precision="FP32">
					<dim>1</dim>
					<dim>1</dim>
				</port>
				<port id="4" precision="FP32">
					<dim>1</dim>
					<dim>1</dim>
				</port>
			</input>
			<output>
				<port id="5" precision="FP32" names="/vis_processor/vis_processor/sigmoid/0__0.0/FakeQuantize_output_0">
					<dim>-1</dim>
					<dim>64</dim>
				</port>
			</output>
		</layer>
		<layer id="104" name="/Mul" type="Multiply" version="opset1">
			<data auto_broadcast="numpy" />
			<input>
				<port id="0" precision="FP32">
					<dim>-1</dim>
					<dim>64</dim>
				</port>
				<port id="1" precision="FP32">
					<dim>-1</dim>
					<dim>64</dim>
				</port>
			</input>
			<output>
				<port id="2" precision="FP32" names="/Mul_output_0">
					<dim>-1</dim>
					<dim>64</dim>
				</port>
			</output>
		</layer>
		<layer id="105" name="Constant_3222" type="Const" version="opset1">
			<data element_type="f32" shape="1, 1" offset="51212" size="4" />
			<output>
				<port id="0" precision="FP32">
					<dim>1</dim>
					<dim>1</dim>
				</port>
			</output>
		</layer>
		<layer id="106" name="Constant_3223" type="Const" version="opset1">
			<data element_type="f32" shape="1, 1" offset="51216" size="4" />
			<output>
				<port id="0" precision="FP32">
					<dim>1</dim>
					<dim>1</dim>
				</port>
			</output>
		</layer>
		<layer id="107" name="Constant_3224" type="Const" version="opset1">
			<data element_type="f32" shape="1, 1" offset="51212" size="4" />
			<output>
				<port id="0" precision="FP32">
					<dim>1</dim>
					<dim>1</dim>
				</port>
			</output>
		</layer>
		<layer id="108" name="Constant_3225" type="Const" version="opset1">
			<data element_type="f32" shape="1, 1" offset="51216" size="4" />
			<output>
				<port id="0" precision="FP32">
					<dim>1</dim>
					<dim>1</dim>
				</port>
			</output>
		</layer>
		<layer id="109" name="//avg_pool1d/0__0.0_1/FakeQuantize" type="FakeQuantize" version="opset1">
			<data levels="256" auto_broadcast="numpy" />
			<input>
				<port id="0" precision="FP32">
					<dim>-1</dim>
					<dim>64</dim>
				</port>
				<port id="1" precision="FP32">
					<dim>1</dim>
					<dim>1</dim>
				</port>
				<port id="2" precision="FP32">
					<dim>1</dim>
					<dim>1</dim>
				</port>
				<port id="3" precision="FP32">
					<dim>1</dim>
					<dim>1</dim>
				</port>
				<port id="4" precision="FP32">
					<dim>1</dim>
					<dim>1</dim>
				</port>
			</input>
			<output>
				<port id="5" precision="FP32" names="//avg_pool1d/0__0.0_1/FakeQuantize_output_0">
					<dim>-1</dim>
					<dim>64</dim>
				</port>
			</output>
		</layer>
		<layer id="110" name="/Constant_5" type="Const" version="opset1">
			<data element_type="i64" shape="1" offset="16" size="8" />
			<output>
				<port id="0" precision="I64" names="/Constant_5_output_0">
					<dim>1</dim>
				</port>
			</output>
		</layer>
		<layer id="111" name="/Constant_6" type="Const" version="opset1">
			<data element_type="i64" shape="1" offset="51220" size="8" />
			<output>
				<port id="0" precision="I64" names="/Constant_6_output_0">
					<dim>1</dim>
				</port>
			</output>
		</layer>
		<layer id="112" name="/Constant_7" type="Const" version="opset1">
			<data element_type="i64" shape="1" offset="24" size="8" />
			<output>
				<port id="0" precision="I64" names="/Constant_7_output_0">
					<dim>1</dim>
				</port>
			</output>
		</layer>
		<layer id="113" name="/Constant_4" type="Const" version="opset1">
			<data element_type="i64" shape="1" offset="32" size="8" />
			<output>
				<port id="0" precision="I64" names="/Constant_4_output_0">
					<dim>1</dim>
				</port>
			</output>
		</layer>
		<layer id="114" name="/Slice_1" type="Slice" version="opset8">
			<input>
				<port id="0" precision="FP32">
					<dim>-1</dim>
					<dim>45</dim>
					<dim>44</dim>
				</port>
				<port id="1" precision="I64">
					<dim>1</dim>
				</port>
				<port id="2" precision="I64">
					<dim>1</dim>
				</port>
				<port id="3" precision="I64">
					<dim>1</dim>
				</port>
				<port id="4" precision="I64">
					<dim>1</dim>
				</port>
			</input>
			<output>
				<port id="5" precision="FP32" names="/Slice_1_output_0">
					<dim>-1</dim>
					<dim>45</dim>
					<dim>4</dim>
				</port>
			</output>
		</layer>
		<layer id="115" name="Constant_73" type="Const" version="opset1">
			<data element_type="i64" shape="3" offset="40" size="24" />
			<output>
				<port id="0" precision="I64">
					<dim>3</dim>
				</port>
			</output>
		</layer>
		<layer id="116" name="/Transpose" type="Transpose" version="opset1">
			<input>
				<port id="0" precision="FP32">
					<dim>-1</dim>
					<dim>45</dim>
					<dim>4</dim>
				</port>
				<port id="1" precision="I64">
					<dim>3</dim>
				</port>
			</input>
			<output>
				<port id="2" precision="FP32" names="/Transpose_output_0">
					<dim>-1</dim>
					<dim>4</dim>
					<dim>45</dim>
				</port>
			</output>
		</layer>
		<layer id="117" name="/Constant_13" type="Const" version="opset1">
			<data element_type="i64" shape="1" offset="24" size="8" />
			<output>
				<port id="0" precision="I64" names="/Constant_13_output_0">
					<dim>1</dim>
				</port>
			</output>
		</layer>
		<layer id="118" name="/Constant_14" type="Const" version="opset1">
			<data element_type="i64" shape="1" offset="45352" size="8" />
			<output>
				<port id="0" precision="I64" names="/Constant_14_output_0">
					<dim>1</dim>
				</port>
			</output>
		</layer>
		<layer id="119" name="/Constant_15" type="Const" version="opset1">
			<data element_type="i64" shape="1" offset="24" size="8" />
			<output>
				<port id="0" precision="I64" names="/Constant_15_output_0">
					<dim>1</dim>
				</port>
			</output>
		</layer>
		<layer id="120" name="/Constant_12" type="Const" version="opset1">
			<data element_type="i64" shape="1" offset="32" size="8" />
			<output>
				<port id="0" precision="I64" names="/Constant_12_output_0">
					<dim>1</dim>
				</port>
			</output>
		</layer>
		<layer id="121" name="/Slice_3" type="Slice" version="opset8">
			<input>
				<port id="0" precision="FP32">
					<dim>-1</dim>
					<dim>4</dim>
					<dim>45</dim>
				</port>
				<port id="1" precision="I64">
					<dim>1</dim>
				</port>
				<port id="2" precision="I64">
					<dim>1</dim>
				</port>
				<port id="3" precision="I64">
					<dim>1</dim>
				</port>
				<port id="4" precision="I64">
					<dim>1</dim>
				</port>
			</input>
			<output>
				<port id="5" precision="FP32" names="/Slice_3_output_0">
					<dim>-1</dim>
					<dim>4</dim>
					<dim>44</dim>
				</port>
			</output>
		</layer>
		<layer id="122" name="/Constant_17" type="Const" version="opset1">
			<data element_type="i64" shape="1" offset="8" size="8" />
			<output>
				<port id="0" precision="I64" names="/Constant_17_output_0">
					<dim>1</dim>
				</port>
			</output>
		</layer>
		<layer id="123" name="/Constant_18" type="Const" version="opset1">
			<data element_type="i64" shape="1" offset="45344" size="8" />
			<output>
				<port id="0" precision="I64" names="/Constant_18_output_0">
					<dim>1</dim>
				</port>
			</output>
		</layer>
		<layer id="124" name="/Constant_19" type="Const" version="opset1">
			<data element_type="i64" shape="1" offset="24" size="8" />
			<output>
				<port id="0" precision="I64" names="/Constant_19_output_0">
					<dim>1</dim>
				</port>
			</output>
		</layer>
		<layer id="125" name="/Constant_16" type="Const" version="opset1">
			<data element_type="i64" shape="1" offset="32" size="8" />
			<output>
				<port id="0" precision="I64" names="/Constant_16_output_0">
					<dim>1</dim>
				</port>
			</output>
		</layer>
		<layer id="126" name="/Slice_4" type="Slice" version="opset8">
			<input>
				<port id="0" precision="FP32">
					<dim>-1</dim>
					<dim>4</dim>
					<dim>45</dim>
				</port>
				<port id="1" precision="I64">
					<dim>1</dim>
				</port>
				<port id="2" precision="I64">
					<dim>1</dim>
				</port>
				<port id="3" precision="I64">
					<dim>1</dim>
				</port>
				<port id="4" precision="I64">
					<dim>1</dim>
				</port>
			</input>
			<output>
				<port id="5" precision="FP32" names="/Slice_4_output_0">
					<dim>-1</dim>
					<dim>4</dim>
					<dim>44</dim>
				</port>
			</output>
		</layer>
		<layer id="127" name="/Sub" type="Subtract" version="opset1">
			<data auto_broadcast="numpy" />
			<input>
				<port id="0" precision="FP32">
					<dim>-1</dim>
					<dim>4</dim>
					<dim>44</dim>
				</port>
				<port id="1" precision="FP32">
					<dim>-1</dim>
					<dim>4</dim>
					<dim>44</dim>
				</port>
			</input>
			<output>
				<port id="2" precision="FP32" names="/Sub_output_0">
					<dim>-1</dim>
					<dim>4</dim>
					<dim>44</dim>
				</port>
			</output>
		</layer>
		<layer id="128" name="Constant_3226" type="Const" version="opset1">
			<data element_type="f32" shape="1, 1, 1" offset="51228" size="4" />
			<output>
				<port id="0" precision="FP32">
					<dim>1</dim>
					<dim>1</dim>
					<dim>1</dim>
				</port>
			</output>
		</layer>
		<layer id="129" name="Constant_3227" type="Const" version="opset1">
			<data element_type="f32" shape="1, 1, 1" offset="51232" size="4" />
			<output>
				<port id="0" precision="FP32">
					<dim>1</dim>
					<dim>1</dim>
					<dim>1</dim>
				</port>
			</output>
		</layer>
		<layer id="130" name="Constant_3228" type="Const" version="opset1">
			<data element_type="f32" shape="1, 1, 1" offset="51228" size="4" />
			<output>
				<port id="0" precision="FP32">
					<dim>1</dim>
					<dim>1</dim>
					<dim>1</dim>
				</port>
			</output>
		</layer>
		<layer id="131" name="Constant_3229" type="Const" version="opset1">
			<data element_type="f32" shape="1, 1, 1" offset="51232" size="4" />
			<output>
				<port id="0" precision="FP32">
					<dim>1</dim>
					<dim>1</dim>
					<dim>1</dim>
				</port>
			</output>
		</layer>
		<layer id="132" name="//sub/0__0.0/FakeQuantize" type="FakeQuantize" version="opset1">
			<data levels="256" auto_broadcast="numpy" />
			<input>
				<port id="0" precision="FP32">
					<dim>-1</dim>
					<dim>4</dim>
					<dim>44</dim>
				</port>
				<port id="1" precision="FP32">
					<dim>1</dim>
					<dim>1</dim>
					<dim>1</dim>
				</port>
				<port id="2" precision="FP32">
					<dim>1</dim>
					<dim>1</dim>
					<dim>1</dim>
				</port>
				<port id="3" precision="FP32">
					<dim>1</dim>
					<dim>1</dim>
					<dim>1</dim>
				</port>
				<port id="4" precision="FP32">
					<dim>1</dim>
					<dim>1</dim>
					<dim>1</dim>
				</port>
			</input>
			<output>
				<port id="5" precision="FP32" names="//sub/0__0.0/FakeQuantize_output_0">
					<dim>-1</dim>
					<dim>4</dim>
					<dim>44</dim>
				</port>
			</output>
		</layer>
		<layer id="133" name="/AveragePool" type="AvgPool" version="opset1">
			<data kernel="4" strides="5" pads_begin="0" pads_end="0" exclude-pad="false" auto_pad="explicit" rounding_type="floor" />
			<input>
				<port id="0" precision="FP32">
					<dim>-1</dim>
					<dim>4</dim>
					<dim>44</dim>
				</port>
			</input>
			<output>
				<port id="1" precision="FP32" names="/AveragePool_output_0">
					<dim>-1</dim>
					<dim>4</dim>
					<dim>9</dim>
				</port>
			</output>
		</layer>
		<layer id="134" name="Constant_3230" type="Const" version="opset1">
			<data element_type="f32" shape="1, 1, 1" offset="51212" size="4" />
			<output>
				<port id="0" precision="FP32">
					<dim>1</dim>
					<dim>1</dim>
					<dim>1</dim>
				</port>
			</output>
		</layer>
		<layer id="135" name="Constant_3231" type="Const" version="opset1">
			<data element_type="f32" shape="1, 1, 1" offset="51216" size="4" />
			<output>
				<port id="0" precision="FP32">
					<dim>1</dim>
					<dim>1</dim>
					<dim>1</dim>
				</port>
			</output>
		</layer>
		<layer id="136" name="Constant_3232" type="Const" version="opset1">
			<data element_type="f32" shape="1, 1, 1" offset="51212" size="4" />
			<output>
				<port id="0" precision="FP32">
					<dim>1</dim>
					<dim>1</dim>
					<dim>1</dim>
				</port>
			</output>
		</layer>
		<layer id="137" name="Constant_3233" type="Const" version="opset1">
			<data element_type="f32" shape="1, 1, 1" offset="51216" size="4" />
			<output>
				<port id="0" precision="FP32">
					<dim>1</dim>
					<dim>1</dim>
					<dim>1</dim>
				</port>
			</output>
		</layer>
		<layer id="138" name="//avg_pool1d/0__0.0/FakeQuantize" type="FakeQuantize" version="opset1">
			<data levels="256" auto_broadcast="numpy" />
			<input>
				<port id="0" precision="FP32">
					<dim>-1</dim>
					<dim>4</dim>
					<dim>9</dim>
				</port>
				<port id="1" precision="FP32">
					<dim>1</dim>
					<dim>1</dim>
					<dim>1</dim>
				</port>
				<port id="2" precision="FP32">
					<dim>1</dim>
					<dim>1</dim>
					<dim>1</dim>
				</port>
				<port id="3" precision="FP32">
					<dim>1</dim>
					<dim>1</dim>
					<dim>1</dim>
				</port>
				<port id="4" precision="FP32">
					<dim>1</dim>
					<dim>1</dim>
					<dim>1</dim>
				</port>
			</input>
			<output>
				<port id="5" precision="FP32" names="//avg_pool1d/0__0.0/FakeQuantize_output_0">
					<dim>-1</dim>
					<dim>4</dim>
					<dim>9</dim>
				</port>
			</output>
		</layer>
		<layer id="139" name="Constant_254" type="Const" version="opset1">
			<data element_type="i64" shape="2" offset="51236" size="16" />
			<output>
				<port id="0" precision="I64">
					<dim>2</dim>
				</port>
			</output>
		</layer>
		<layer id="140" name="/Flatten" type="Reshape" version="opset1">
			<data special_zero="true" />
			<input>
				<port id="0" precision="FP32">
					<dim>-1</dim>
					<dim>4</dim>
					<dim>9</dim>
				</port>
				<port id="1" precision="I64">
					<dim>2</dim>
				</port>
			</input>
			<output>
				<port id="2" precision="FP32" names="/Flatten_output_0">
					<dim>-1</dim>
					<dim>36</dim>
				</port>
			</output>
		</layer>
		<layer id="141" name="/Concat" type="Concat" version="opset1">
			<data axis="1" />
			<input>
				<port id="0" precision="FP32">
					<dim>-1</dim>
					<dim>64</dim>
				</port>
				<port id="1" precision="FP32">
					<dim>-1</dim>
					<dim>36</dim>
				</port>
			</input>
			<output>
				<port id="2" precision="FP32" names="/Concat_output_0">
					<dim>-1</dim>
					<dim>100</dim>
				</port>
			</output>
		</layer>
		<layer id="142" name="Constant_3587" type="Const" version="opset1">
			<data element_type="i8" shape="64, 100" offset="51252" size="6400" />
			<output>
				<port id="0" precision="I8">
					<dim>64</dim>
					<dim>100</dim>
				</port>
			</output>
		</layer>
		<layer id="143" name="Convert_3588" type="Convert" version="opset1">
			<data destination_type="f32" />
			<input>
				<port id="0" precision="I8">
					<dim>64</dim>
					<dim>100</dim>
				</port>
			</input>
			<output>
				<port id="1" precision="FP32">
					<dim>64</dim>
					<dim>100</dim>
				</port>
			</output>
		</layer>
		<layer id="144" name="Constant_3589" type="Const" version="opset1">
			<data element_type="f32" shape="64, 1" offset="57652" size="256" />
			<output>
				<port id="0" precision="FP32">
					<dim>64</dim>
					<dim>1</dim>
				</port>
			</output>
		</layer>
		<layer id="145" name="/fc1/fc1/linear/0__1.0/FakeQuantize" type="Multiply" version="opset1">
			<data auto_broadcast="numpy" />
			<input>
				<port id="0" precision="FP32">
					<dim>64</dim>
					<dim>100</dim>
				</port>
				<port id="1" precision="FP32">
					<dim>64</dim>
					<dim>1</dim>
				</port>
			</input>
			<output>
				<port id="2" precision="FP32" names="/fc1/fc1/linear/0__1.0/FakeQuantize_output_0">
					<dim>64</dim>
					<dim>100</dim>
				</port>
			</output>
		</layer>
		<layer id="146" name="/fc1/Gemm/WithoutBiases" type="MatMul" version="opset1">
			<data transpose_a="false" transpose_b="true" />
			<input>
				<port id="0" precision="FP32">
					<dim>-1</dim>
					<dim>100</dim>
				</port>
				<port id="1" precision="FP32">
					<dim>64</dim>
					<dim>100</dim>
				</port>
			</input>
			<output>
				<port id="2" precision="FP32">
					<dim>-1</dim>
					<dim>64</dim>
				</port>
			</output>
		</layer>
		<layer id="147" name="Constant_3234" type="Const" version="opset1">
			<data element_type="f32" shape="1, 64" offset="57908" size="256" />
			<output>
				<port id="0" precision="FP32">
					<dim>1</dim>
					<dim>64</dim>
				</port>
			</output>
		</layer>
		<layer id="148" name="/fc1/Gemm" type="Add" version="opset1">
			<data auto_broadcast="numpy" />
			<input>
				<port id="0" precision="FP32">
					<dim>-1</dim>
					<dim>64</dim>
				</port>
				<port id="1" precision="FP32">
					<dim>1</dim>
					<dim>64</dim>
				</port>
			</input>
			<output>
				<port id="2" precision="FP32" names="/fc1/Gemm_output_0">
					<dim>-1</dim>
					<dim>64</dim>
				</port>
			</output>
		</layer>
		<layer id="149" name="Constant_3235" type="Const" version="opset1">
			<data element_type="f32" shape="1, 1" offset="2488" size="4" />
			<output>
				<port id="0" precision="FP32">
					<dim>1</dim>
					<dim>1</dim>
				</port>
			</output>
		</layer>
		<layer id="150" name="Constant_3236" type="Const" version="opset1">
			<data element_type="f32" shape="1, 1" offset="58164" size="4" />
			<output>
				<port id="0" precision="FP32">
					<dim>1</dim>
					<dim>1</dim>
				</port>
			</output>
		</layer>
		<layer id="151" name="Constant_3237" type="Const" version="opset1">
			<data element_type="f32" shape="1, 1" offset="2488" size="4" />
			<output>
				<port id="0" precision="FP32">
					<dim>1</dim>
					<dim>1</dim>
				</port>
			</output>
		</layer>
		<layer id="152" name="Constant_3238" type="Const" version="opset1">
			<data element_type="f32" shape="1, 1" offset="58164" size="4" />
			<output>
				<port id="0" precision="FP32">
					<dim>1</dim>
					<dim>1</dim>
				</port>
			</output>
		</layer>
		<layer id="153" name="/relu/relu/relu/0__0.0/FakeQuantize" type="FakeQuantize" version="opset1">
			<data levels="256" auto_broadcast="numpy" />
			<input>
				<port id="0" precision="FP32">
					<dim>-1</dim>
					<dim>64</dim>
				</port>
				<port id="1" precision="FP32">
					<dim>1</dim>
					<dim>1</dim>
				</port>
				<port id="2" precision="FP32">
					<dim>1</dim>
					<dim>1</dim>
				</port>
				<port id="3" precision="FP32">
					<dim>1</dim>
					<dim>1</dim>
				</port>
				<port id="4" precision="FP32">
					<dim>1</dim>
					<dim>1</dim>
				</port>
			</input>
			<output>
				<port id="5" precision="FP32" names="/relu/relu/relu/0__0.0/FakeQuantize_output_0">
					<dim>-1</dim>
					<dim>64</dim>
				</port>
			</output>
		</layer>
		<layer id="154" name="Constant_3591" type="Const" version="opset1">
			<data element_type="i8" shape="1, 64" offset="58168" size="64" />
			<output>
				<port id="0" precision="I8">
					<dim>1</dim>
					<dim>64</dim>
				</port>
			</output>
		</layer>
		<layer id="155" name="Convert_3592" type="Convert" version="opset1">
			<data destination_type="f32" />
			<input>
				<port id="0" precision="I8">
					<dim>1</dim>
					<dim>64</dim>
				</port>
			</input>
			<output>
				<port id="1" precision="FP32">
					<dim>1</dim>
					<dim>64</dim>
				</port>
			</output>
		</layer>
		<layer id="156" name="Constant_3593" type="Const" version="opset1">
			<data element_type="f32" shape="1, 1" offset="58232" size="4" />
			<output>
				<port id="0" precision="FP32">
					<dim>1</dim>
					<dim>1</dim>
				</port>
			</output>
		</layer>
		<layer id="157" name="/fc2/fc2/linear/0__1.0/FakeQuantize" type="Multiply" version="opset1">
			<data auto_broadcast="numpy" />
			<input>
				<port id="0" precision="FP32">
					<dim>1</dim>
					<dim>64</dim>
				</port>
				<port id="1" precision="FP32">
					<dim>1</dim>
					<dim>1</dim>
				</port>
			</input>
			<output>
				<port id="2" precision="FP32" names="/fc2/fc2/linear/0__1.0/FakeQuantize_output_0">
					<dim>1</dim>
					<dim>64</dim>
				</port>
			</output>
		</layer>
		<layer id="158" name="/fc2/Gemm/WithoutBiases" type="MatMul" version="opset1">
			<data transpose_a="false" transpose_b="true" />
			<input>
				<port id="0" precision="FP32">
					<dim>-1</dim>
					<dim>64</dim>
				</port>
				<port id="1" precision="FP32">
					<dim>1</dim>
					<dim>64</dim>
				</port>
			</input>
			<output>
				<port id="2" precision="FP32">
					<dim>-1</dim>
					<dim>1</dim>
				</port>
			</output>
		</layer>
		<layer id="159" name="Constant_3239" type="Const" version="opset1">
			<data element_type="f32" shape="1, 1" offset="58236" size="4" />
			<output>
				<port id="0" precision="FP32">
					<dim>1</dim>
					<dim>1</dim>
				</port>
			</output>
		</layer>
		<layer id="160" name="/fc2/Gemm" type="Add" version="opset1">
			<data auto_broadcast="numpy" />
			<input>
				<port id="0" precision="FP32">
					<dim>-1</dim>
					<dim>1</dim>
				</port>
				<port id="1" precision="FP32">
					<dim>1</dim>
					<dim>1</dim>
				</port>
			</input>
			<output>
				<port id="2" precision="FP32" names="/fc2/Gemm_output_0">
					<dim>-1</dim>
					<dim>1</dim>
				</port>
			</output>
		</layer>
		<layer id="161" name="/Constant_20" type="Const" version="opset1">
			<data element_type="i64" shape="1" offset="24" size="8" />
			<output>
				<port id="0" precision="I64" names="/Constant_20_output_0">
					<dim>1</dim>
				</port>
			</output>
		</layer>
		<layer id="162" name="logits" type="Squeeze" version="opset1">
			<input>
				<port id="0" precision="FP32">
					<dim>-1</dim>
					<dim>1</dim>
				</port>
				<port id="1" precision="I64">
					<dim>1</dim>
				</port>
			</input>
			<output>
				<port id="2" precision="FP32" names="logits">
					<dim>-1</dim>
				</port>
			</output>
		</layer>
		<layer id="163" name="logits/sink_port_0" type="Result" version="opset1" output_names="logits">
			<input>
				<port id="0" precision="FP32">
					<dim>-1</dim>
				</port>
			</input>
		</layer>
	</layers>
	<edges>
		<edge from-layer="0" from-port="0" to-layer="5" to-port="0" />
		<edge from-layer="1" from-port="0" to-layer="5" to-port="1" />
		<edge from-layer="2" from-port="0" to-layer="5" to-port="2" />
		<edge from-layer="3" from-port="0" to-layer="5" to-port="3" />
		<edge from-layer="4" from-port="0" to-layer="5" to-port="4" />
		<edge from-layer="5" from-port="5" to-layer="67" to-port="0" />
		<edge from-layer="5" from-port="5" to-layer="114" to-port="0" />
		<edge from-layer="5" from-port="5" to-layer="10" to-port="0" />
		<edge from-layer="6" from-port="0" to-layer="10" to-port="1" />
		<edge from-layer="7" from-port="0" to-layer="10" to-port="2" />
		<edge from-layer="8" from-port="0" to-layer="10" to-port="3" />
		<edge from-layer="9" from-port="0" to-layer="10" to-port="4" />
		<edge from-layer="10" from-port="5" to-layer="12" to-port="0" />
		<edge from-layer="11" from-port="0" to-layer="12" to-port="1" />
		<edge from-layer="12" from-port="2" to-layer="33" to-port="0" />
		<edge from-layer="12" from-port="2" to-layer="19" to-port="0" />
		<edge from-layer="13" from-port="0" to-layer="14" to-port="0" />
		<edge from-layer="14" from-port="1" to-layer="16" to-port="0" />
		<edge from-layer="15" from-port="0" to-layer="16" to-port="1" />
		<edge from-layer="16" from-port="2" to-layer="18" to-port="0" />
		<edge from-layer="17" from-port="0" to-layer="18" to-port="1" />
		<edge from-layer="18" from-port="2" to-layer="19" to-port="1" />
		<edge from-layer="19" from-port="2" to-layer="21" to-port="0" />
		<edge from-layer="20" from-port="0" to-layer="21" to-port="1" />
		<edge from-layer="21" from-port="2" to-layer="26" to-port="0" />
		<edge from-layer="22" from-port="0" to-layer="26" to-port="1" />
		<edge from-layer="23" from-port="0" to-layer="26" to-port="2" />
		<edge from-layer="24" from-port="0" to-layer="26" to-port="3" />
		<edge from-layer="25" from-port="0" to-layer="26" to-port="4" />
		<edge from-layer="26" from-port="5" to-layer="41" to-port="0" />
		<edge from-layer="27" from-port="0" to-layer="28" to-port="0" />
		<edge from-layer="28" from-port="1" to-layer="30" to-port="0" />
		<edge from-layer="29" from-port="0" to-layer="30" to-port="1" />
		<edge from-layer="30" from-port="2" to-layer="32" to-port="0" />
		<edge from-layer="31" from-port="0" to-layer="32" to-port="1" />
		<edge from-layer="32" from-port="2" to-layer="33" to-port="1" />
		<edge from-layer="33" from-port="2" to-layer="35" to-port="0" />
		<edge from-layer="34" from-port="0" to-layer="35" to-port="1" />
		<edge from-layer="35" from-port="2" to-layer="40" to-port="0" />
		<edge from-layer="36" from-port="0" to-layer="40" to-port="1" />
		<edge from-layer="37" from-port="0" to-layer="40" to-port="2" />
		<edge from-layer="38" from-port="0" to-layer="40" to-port="3" />
		<edge from-layer="39" from-port="0" to-layer="40" to-port="4" />
		<edge from-layer="40" from-port="5" to-layer="41" to-port="1" />
		<edge from-layer="41" from-port="2" to-layer="46" to-port="0" />
		<edge from-layer="42" from-port="0" to-layer="43" to-port="0" />
		<edge from-layer="43" from-port="1" to-layer="45" to-port="0" />
		<edge from-layer="44" from-port="0" to-layer="45" to-port="1" />
		<edge from-layer="45" from-port="2" to-layer="46" to-port="1" />
		<edge from-layer="46" from-port="2" to-layer="48" to-port="0" />
		<edge from-layer="47" from-port="0" to-layer="48" to-port="1" />
		<edge from-layer="48" from-port="2" to-layer="53" to-port="0" />
		<edge from-layer="49" from-port="0" to-layer="53" to-port="1" />
		<edge from-layer="50" from-port="0" to-layer="53" to-port="2" />
		<edge from-layer="51" from-port="0" to-layer="53" to-port="3" />
		<edge from-layer="52" from-port="0" to-layer="53" to-port="4" />
		<edge from-layer="53" from-port="5" to-layer="55" to-port="0" />
		<edge from-layer="54" from-port="0" to-layer="55" to-port="1" />
		<edge from-layer="55" from-port="2" to-layer="60" to-port="0" />
		<edge from-layer="56" from-port="0" to-layer="60" to-port="1" />
		<edge from-layer="57" from-port="0" to-layer="60" to-port="2" />
		<edge from-layer="58" from-port="0" to-layer="60" to-port="3" />
		<edge from-layer="59" from-port="0" to-layer="60" to-port="4" />
		<edge from-layer="60" from-port="5" to-layer="62" to-port="0" />
		<edge from-layer="61" from-port="0" to-layer="62" to-port="1" />
		<edge from-layer="62" from-port="2" to-layer="104" to-port="0" />
		<edge from-layer="63" from-port="0" to-layer="67" to-port="1" />
		<edge from-layer="64" from-port="0" to-layer="67" to-port="2" />
		<edge from-layer="65" from-port="0" to-layer="67" to-port="3" />
		<edge from-layer="66" from-port="0" to-layer="67" to-port="4" />
		<edge from-layer="67" from-port="5" to-layer="69" to-port="0" />
		<edge from-layer="68" from-port="0" to-layer="69" to-port="1" />
		<edge from-layer="69" from-port="2" to-layer="74" to-port="0" />
		<edge from-layer="70" from-port="0" to-layer="71" to-port="0" />
		<edge from-layer="71" from-port="1" to-layer="73" to-port="0" />
		<edge from-layer="72" from-port="0" to-layer="73" to-port="1" />
		<edge from-layer="73" from-port="2" to-layer="74" to-port="1" />
		<edge from-layer="74" from-port="2" to-layer="76" to-port="0" />
		<edge from-layer="75" from-port="0" to-layer="76" to-port="1" />
		<edge from-layer="76" from-port="2" to-layer="81" to-port="0" />
		<edge from-layer="77" from-port="0" to-layer="81" to-port="1" />
		<edge from-layer="78" from-port="0" to-layer="81" to-port="2" />
		<edge from-layer="79" from-port="0" to-layer="81" to-port="3" />
		<edge from-layer="80" from-port="0" to-layer="81" to-port="4" />
		<edge from-layer="81" from-port="5" to-layer="86" to-port="0" />
		<edge from-layer="82" from-port="0" to-layer="83" to-port="0" />
		<edge from-layer="83" from-port="1" to-layer="85" to-port="0" />
		<edge from-layer="84" from-port="0" to-layer="85" to-port="1" />
		<edge from-layer="85" from-port="2" to-layer="86" to-port="1" />
		<edge from-layer="86" from-port="2" to-layer="88" to-port="0" />
		<edge from-layer="87" from-port="0" to-layer="88" to-port="1" />
		<edge from-layer="88" from-port="2" to-layer="93" to-port="0" />
		<edge from-layer="89" from-port="0" to-layer="93" to-port="1" />
		<edge from-layer="90" from-port="0" to-layer="93" to-port="2" />
		<edge from-layer="91" from-port="0" to-layer="93" to-port="3" />
		<edge from-layer="92" from-port="0" to-layer="93" to-port="4" />
		<edge from-layer="93" from-port="5" to-layer="95" to-port="0" />
		<edge from-layer="94" from-port="0" to-layer="95" to-port="1" />
		<edge from-layer="95" from-port="2" to-layer="97" to-port="0" />
		<edge from-layer="96" from-port="0" to-layer="97" to-port="1" />
		<edge from-layer="97" from-port="2" to-layer="98" to-port="0" />
		<edge from-layer="98" from-port="1" to-layer="103" to-port="0" />
		<edge from-layer="99" from-port="0" to-layer="103" to-port="1" />
		<edge from-layer="100" from-port="0" to-layer="103" to-port="2" />
		<edge from-layer="101" from-port="0" to-layer="103" to-port="3" />
		<edge from-layer="102" from-port="0" to-layer="103" to-port="4" />
		<edge from-layer="103" from-port="5" to-layer="104" to-port="1" />
		<edge from-layer="104" from-port="2" to-layer="109" to-port="0" />
		<edge from-layer="105" from-port="0" to-layer="109" to-port="1" />
		<edge from-layer="106" from-port="0" to-layer="109" to-port="2" />
		<edge from-layer="107" from-port="0" to-layer="109" to-port="3" />
		<edge from-layer="108" from-port="0" to-layer="109" to-port="4" />
		<edge from-layer="109" from-port="5" to-layer="141" to-port="0" />
		<edge from-layer="110" from-port="0" to-layer="114" to-port="1" />
		<edge from-layer="111" from-port="0" to-layer="114" to-port="2" />
		<edge from-layer="112" from-port="0" to-layer="114" to-port="3" />
		<edge from-layer="113" from-port="0" to-layer="114" to-port="4" />
		<edge from-layer="114" from-port="5" to-layer="116" to-port="0" />
		<edge from-layer="115" from-port="0" to-layer="116" to-port="1" />
		<edge from-layer="116" from-port="2" to-layer="121" to-port="0" />
		<edge from-layer="116" from-port="2" to-layer="126" to-port="0" />
		<edge from-layer="117" from-port="0" to-layer="121" to-port="1" />
		<edge from-layer="118" from-port="0" to-layer="121" to-port="2" />
		<edge from-layer="119" from-port="0" to-layer="121" to-port="3" />
		<edge from-layer="120" from-port="0" to-layer="121" to-port="4" />
		<edge from-layer="121" from-port="5" to-layer="127" to-port="0" />
		<edge from-layer="122" from-port="0" to-layer="126" to-port="1" />
		<edge from-layer="123" from-port="0" to-layer="126" to-port="2" />
		<edge from-layer="124" from-port="0" to-layer="126" to-port="3" />
		<edge from-layer="125" from-port="0" to-layer="126" to-port="4" />
		<edge from-layer="126" from-port="5" to-layer="127" to-port="1" />
		<edge from-layer="127" from-port="2" to-layer="132" to-port="0" />
		<edge from-layer="128" from-port="0" to-layer="132" to-port="1" />
		<edge from-layer="129" from-port="0" to-layer="132" to-port="2" />
		<edge from-layer="130" from-port="0" to-layer="132" to-port="3" />
		<edge from-layer="131" from-port="0" to-layer="132" to-port="4" />
		<edge from-layer="132" from-port="5" to-layer="133" to-port="0" />
		<edge from-layer="133" from-port="1" to-layer="138" to-port="0" />
		<edge from-layer="134" from-port="0" to-layer="138" to-port="1" />
		<edge from-layer="135" from-port="0" to-layer="138" to-port="2" />
		<edge from-layer="136" from-port="0" to-layer="138" to-port="3" />
		<edge from-layer="137" from-port="0" to-layer="138" to-port="4" />
		<edge from-layer="138" from-port="5" to-layer="140" to-port="0" />
		<edge from-layer="139" from-port="0" to-layer="140" to-port="1" />
		<edge from-layer="140" from-port="2" to-layer="141" to-port="1" />
		<edge from-layer="141" from-port="2" to-layer="146" to-port="0" />
		<edge from-layer="142" from-port="0" to-layer="143" to-port="0" />
		<edge from-layer="143" from-port="1" to-layer="145" to-port="0" />
		<edge from-layer="144" from-port="0" to-layer="145" to-port="1" />
		<edge from-layer="145" from-port="2" to-layer="146" to-port="1" />
		<edge from-layer="146" from-port="2" to-layer="148" to-port="0" />
		<edge from-layer="147" from-port="0" to-layer="148" to-port="1" />
		<edge from-layer="148" from-port="2" to-layer="153" to-port="0" />
		<edge from-layer="149" from-port="0" to-layer="153" to-port="1" />
		<edge from-layer="150" from-port="0" to-layer="153" to-port="2" />
		<edge from-layer="151" from-port="0" to-layer="153" to-port="3" />
		<edge from-layer="152" from-port="0" to-layer="153" to-port="4" />
		<edge from-layer="153" from-port="5" to-layer="158" to-port="0" />
		<edge from-layer="154" from-port="0" to-layer="155" to-port="0" />
		<edge from-layer="155" from-port="1" to-layer="157" to-port="0" />
		<edge from-layer="156" from-port="0" to-layer="157" to-port="1" />
		<edge from-layer="157" from-port="2" to-layer="158" to-port="1" />
		<edge from-layer="158" from-port="2" to-layer="160" to-port="0" />
		<edge from-layer="159" from-port="0" to-layer="160" to-port="1" />
		<edge from-layer="160" from-port="2" to-layer="162" to-port="0" />
		<edge from-layer="161" from-port="0" to-layer="162" to-port="1" />
		<edge from-layer="162" from-port="2" to-layer="163" to-port="0" />
	</edges>
	<rt_info>
		<Runtime_version value="2026.1.0-21367-63e31528c62-releases/2026/1" />
		<conversion_parameters>
			<is_python_object value="False" />
		</conversion_parameters>
	</rt_info>
</net>
